layer {
  name: "HDF5Data1"
  type: "HDF5Data"
  top: "HDF5Data"
  top: "label"
  hdf5_data_param {
    source: "/home/usmansadiq/DeepLearn/ann4brains/examples/generated_synthetic_data/train.h5.txt"
    batch_size: 14
  }
}
layer {
  name: "HDF5Data2"
  type: "HDF5Data"
  top: "HDF5Data"
  hdf5_data_param {
    source: "/home/usmansadiq/DeepLearn/ann4brains/examples/generated_synthetic_data/train1.h5.txt"
    batch_size: 14
  }
}
layer {
  name: "Convolution1"
  type: "Convolution"
  bottom: "HDF5Data"
  top: "Convolution1"
  param {
    lr_mult: 1
    decay_mult: 1
  }
  param {
    lr_mult: 2
    decay_mult: 0
  }
  convolution_param {
    num_output: 32
    stride: 1
    weight_filler {
      type: "xavier"
    }
    bias_filler {
      type: "constant"
      value: 0
    }
    kernel_h: 110
    kernel_w: 1
  }
}
layer {
  name: "Concat1"
  type: "Concat"
  bottom: "Convolution1"
  bottom: "Convolution1"
  bottom: "Convolution1"
  bottom: "Convolution1"
  bottom: "Convolution1"
  bottom: "Convolution1"
  bottom: "Convolution1"
  bottom: "Convolution1"
  bottom: "Convolution1"
  bottom: "Convolution1"
  bottom: "Convolution1"
  bottom: "Convolution1"
  bottom: "Convolution1"
  bottom: "Convolution1"
  bottom: "Convolution1"
  bottom: "Convolution1"
  bottom: "Convolution1"
  bottom: "Convolution1"
  bottom: "Convolution1"
  bottom: "Convolution1"
  bottom: "Convolution1"
  bottom: "Convolution1"
  bottom: "Convolution1"
  bottom: "Convolution1"
  bottom: "Convolution1"
  bottom: "Convolution1"
  bottom: "Convolution1"
  bottom: "Convolution1"
  bottom: "Convolution1"
  bottom: "Convolution1"
  bottom: "Convolution1"
  bottom: "Convolution1"
  bottom: "Convolution1"
  bottom: "Convolution1"
  bottom: "Convolution1"
  bottom: "Convolution1"
  bottom: "Convolution1"
  bottom: "Convolution1"
  bottom: "Convolution1"
  bottom: "Convolution1"
  bottom: "Convolution1"
  bottom: "Convolution1"
  bottom: "Convolution1"
  bottom: "Convolution1"
  bottom: "Convolution1"
  bottom: "Convolution1"
  bottom: "Convolution1"
  bottom: "Convolution1"
  bottom: "Convolution1"
  bottom: "Convolution1"
  bottom: "Convolution1"
  bottom: "Convolution1"
  bottom: "Convolution1"
  bottom: "Convolution1"
  bottom: "Convolution1"
  bottom: "Convolution1"
  bottom: "Convolution1"
  bottom: "Convolution1"
  bottom: "Convolution1"
  bottom: "Convolution1"
  bottom: "Convolution1"
  bottom: "Convolution1"
  bottom: "Convolution1"
  bottom: "Convolution1"
  bottom: "Convolution1"
  bottom: "Convolution1"
  bottom: "Convolution1"
  bottom: "Convolution1"
  bottom: "Convolution1"
  bottom: "Convolution1"
  bottom: "Convolution1"
  bottom: "Convolution1"
  bottom: "Convolution1"
  bottom: "Convolution1"
  bottom: "Convolution1"
  bottom: "Convolution1"
  bottom: "Convolution1"
  bottom: "Convolution1"
  bottom: "Convolution1"
  bottom: "Convolution1"
  bottom: "Convolution1"
  bottom: "Convolution1"
  bottom: "Convolution1"
  bottom: "Convolution1"
  bottom: "Convolution1"
  bottom: "Convolution1"
  bottom: "Convolution1"
  bottom: "Convolution1"
  bottom: "Convolution1"
  bottom: "Convolution1"
  bottom: "Convolution1"
  bottom: "Convolution1"
  bottom: "Convolution1"
  bottom: "Convolution1"
  bottom: "Convolution1"
  bottom: "Convolution1"
  bottom: "Convolution1"
  bottom: "Convolution1"
  bottom: "Convolution1"
  bottom: "Convolution1"
  bottom: "Convolution1"
  bottom: "Convolution1"
  bottom: "Convolution1"
  bottom: "Convolution1"
  bottom: "Convolution1"
  bottom: "Convolution1"
  bottom: "Convolution1"
  bottom: "Convolution1"
  bottom: "Convolution1"
  bottom: "Convolution1"
  top: "Concat1"
  concat_param {
    axis: 2
  }
}
layer {
  name: "Convolution2"
  type: "Convolution"
  bottom: "HDF5Data2"
  top: "Convolution2"
  param {
    lr_mult: 1
    decay_mult: 1
  }
  param {
    lr_mult: 2
    decay_mult: 0
  }
  convolution_param {
    num_output: 32
    stride: 1
    weight_filler {
      type: "xavier"
    }
    bias_filler {
      type: "constant"
      value: 0
    }
    kernel_h: 1
    kernel_w: 110
  }
}
layer {
  name: "Concat2"
  type: "Concat"
  bottom: "Convolution2"
  bottom: "Convolution2"
  bottom: "Convolution2"
  bottom: "Convolution2"
  bottom: "Convolution2"
  bottom: "Convolution2"
  bottom: "Convolution2"
  bottom: "Convolution2"
  bottom: "Convolution2"
  bottom: "Convolution2"
  bottom: "Convolution2"
  bottom: "Convolution2"
  bottom: "Convolution2"
  bottom: "Convolution2"
  bottom: "Convolution2"
  bottom: "Convolution2"
  bottom: "Convolution2"
  bottom: "Convolution2"
  bottom: "Convolution2"
  bottom: "Convolution2"
  bottom: "Convolution2"
  bottom: "Convolution2"
  bottom: "Convolution2"
  bottom: "Convolution2"
  bottom: "Convolution2"
  bottom: "Convolution2"
  bottom: "Convolution2"
  bottom: "Convolution2"
  bottom: "Convolution2"
  bottom: "Convolution2"
  bottom: "Convolution2"
  bottom: "Convolution2"
  bottom: "Convolution2"
  bottom: "Convolution2"
  bottom: "Convolution2"
  bottom: "Convolution2"
  bottom: "Convolution2"
  bottom: "Convolution2"
  bottom: "Convolution2"
  bottom: "Convolution2"
  bottom: "Convolution2"
  bottom: "Convolution2"
  bottom: "Convolution2"
  bottom: "Convolution2"
  bottom: "Convolution2"
  bottom: "Convolution2"
  bottom: "Convolution2"
  bottom: "Convolution2"
  bottom: "Convolution2"
  bottom: "Convolution2"
  bottom: "Convolution2"
  bottom: "Convolution2"
  bottom: "Convolution2"
  bottom: "Convolution2"
  bottom: "Convolution2"
  bottom: "Convolution2"
  bottom: "Convolution2"
  bottom: "Convolution2"
  bottom: "Convolution2"
  bottom: "Convolution2"
  bottom: "Convolution2"
  bottom: "Convolution2"
  bottom: "Convolution2"
  bottom: "Convolution2"
  bottom: "Convolution2"
  bottom: "Convolution2"
  bottom: "Convolution2"
  bottom: "Convolution2"
  bottom: "Convolution2"
  bottom: "Convolution2"
  bottom: "Convolution2"
  bottom: "Convolution2"
  bottom: "Convolution2"
  bottom: "Convolution2"
  bottom: "Convolution2"
  bottom: "Convolution2"
  bottom: "Convolution2"
  bottom: "Convolution2"
  bottom: "Convolution2"
  bottom: "Convolution2"
  bottom: "Convolution2"
  bottom: "Convolution2"
  bottom: "Convolution2"
  bottom: "Convolution2"
  bottom: "Convolution2"
  bottom: "Convolution2"
  bottom: "Convolution2"
  bottom: "Convolution2"
  bottom: "Convolution2"
  bottom: "Convolution2"
  bottom: "Convolution2"
  bottom: "Convolution2"
  bottom: "Convolution2"
  bottom: "Convolution2"
  bottom: "Convolution2"
  bottom: "Convolution2"
  bottom: "Convolution2"
  bottom: "Convolution2"
  bottom: "Convolution2"
  bottom: "Convolution2"
  bottom: "Convolution2"
  bottom: "Convolution2"
  bottom: "Convolution2"
  bottom: "Convolution2"
  bottom: "Convolution2"
  bottom: "Convolution2"
  bottom: "Convolution2"
  bottom: "Convolution2"
  bottom: "Convolution2"
  bottom: "Convolution2"
  top: "Concat2"
  concat_param {
    axis: 3
  }
}
layer {
  name: "Eltwise1"
  type: "Eltwise"
  bottom: "Concat1"
  bottom: "Concat2"
  top: "Eltwise1"
  eltwise_param {
    operation: SUM
  }
}
layer {
  name: "Convolution3"
  type: "Convolution"
  bottom: "Eltwise1"
  top: "Convolution3"
  param {
    lr_mult: 1
    decay_mult: 1
  }
  param {
    lr_mult: 2
    decay_mult: 0
  }
  convolution_param {
    num_output: 64
    stride: 1
    weight_filler {
      type: "xavier"
    }
    bias_filler {
      type: "constant"
      value: 0
    }
    kernel_h: 1
    kernel_w: 110
  }
}
layer {
  name: "Dropout1"
  type: "Dropout"
  bottom: "Convolution3"
  top: "Convolution3"
  dropout_param {
    dropout_ratio: 0.5
  }
}
layer {
  name: "ReLU1"
  type: "ReLU"
  bottom: "Convolution3"
  top: "Convolution3"
  relu_param {
    negative_slope: 0.33
  }
}
layer {
  name: "InnerProduct1"
  type: "InnerProduct"
  bottom: "Convolution3"
  top: "InnerProduct1"
  param {
    lr_mult: 1
    decay_mult: 1
  }
  param {
    lr_mult: 2
    decay_mult: 0
  }
  inner_product_param {
    num_output: 30
    weight_filler {
      type: "xavier"
    }
    bias_filler {
      type: "constant"
      value: 0
    }
  }
}
layer {
  name: "ReLU2"
  type: "ReLU"
  bottom: "InnerProduct1"
  top: "InnerProduct1"
  relu_param {
    negative_slope: 0.33
  }
}
layer {
  name: "InnerProduct2"
  type: "InnerProduct"
  bottom: "InnerProduct1"
  top: "InnerProduct2"
  param {
    lr_mult: 1
    decay_mult: 1
  }
  param {
    lr_mult: 2
    decay_mult: 0
  }
  inner_product_param {
    num_output: 1
    weight_filler {
      type: "xavier"
    }
    bias_filler {
      type: "constant"
      value: 0
    }
  }
}
layer {
  name: "Convolution4"
  type: "Convolution"
  bottom: "HDF5Data1"
  top: "Convolution4"
  param {
    lr_mult: 1
    decay_mult: 1
  }
  param {
    lr_mult: 2
    decay_mult: 0
  }
  convolution_param {
    num_output: 32
    stride: 1
    weight_filler {
      type: "xavier"
    }
    bias_filler {
      type: "constant"
      value: 0
    }
    kernel_h: 110
    kernel_w: 1
  }
}
layer {
  name: "Concat3"
  type: "Concat"
  bottom: "Convolution4"
  bottom: "Convolution4"
  bottom: "Convolution4"
  bottom: "Convolution4"
  bottom: "Convolution4"
  bottom: "Convolution4"
  bottom: "Convolution4"
  bottom: "Convolution4"
  bottom: "Convolution4"
  bottom: "Convolution4"
  bottom: "Convolution4"
  bottom: "Convolution4"
  bottom: "Convolution4"
  bottom: "Convolution4"
  bottom: "Convolution4"
  bottom: "Convolution4"
  bottom: "Convolution4"
  bottom: "Convolution4"
  bottom: "Convolution4"
  bottom: "Convolution4"
  bottom: "Convolution4"
  bottom: "Convolution4"
  bottom: "Convolution4"
  bottom: "Convolution4"
  bottom: "Convolution4"
  bottom: "Convolution4"
  bottom: "Convolution4"
  bottom: "Convolution4"
  bottom: "Convolution4"
  bottom: "Convolution4"
  bottom: "Convolution4"
  bottom: "Convolution4"
  bottom: "Convolution4"
  bottom: "Convolution4"
  bottom: "Convolution4"
  bottom: "Convolution4"
  bottom: "Convolution4"
  bottom: "Convolution4"
  bottom: "Convolution4"
  bottom: "Convolution4"
  bottom: "Convolution4"
  bottom: "Convolution4"
  bottom: "Convolution4"
  bottom: "Convolution4"
  bottom: "Convolution4"
  bottom: "Convolution4"
  bottom: "Convolution4"
  bottom: "Convolution4"
  bottom: "Convolution4"
  bottom: "Convolution4"
  bottom: "Convolution4"
  bottom: "Convolution4"
  bottom: "Convolution4"
  bottom: "Convolution4"
  bottom: "Convolution4"
  bottom: "Convolution4"
  bottom: "Convolution4"
  bottom: "Convolution4"
  bottom: "Convolution4"
  bottom: "Convolution4"
  bottom: "Convolution4"
  bottom: "Convolution4"
  bottom: "Convolution4"
  bottom: "Convolution4"
  bottom: "Convolution4"
  bottom: "Convolution4"
  bottom: "Convolution4"
  bottom: "Convolution4"
  bottom: "Convolution4"
  bottom: "Convolution4"
  bottom: "Convolution4"
  bottom: "Convolution4"
  bottom: "Convolution4"
  bottom: "Convolution4"
  bottom: "Convolution4"
  bottom: "Convolution4"
  bottom: "Convolution4"
  bottom: "Convolution4"
  bottom: "Convolution4"
  bottom: "Convolution4"
  bottom: "Convolution4"
  bottom: "Convolution4"
  bottom: "Convolution4"
  bottom: "Convolution4"
  bottom: "Convolution4"
  bottom: "Convolution4"
  bottom: "Convolution4"
  bottom: "Convolution4"
  bottom: "Convolution4"
  bottom: "Convolution4"
  bottom: "Convolution4"
  bottom: "Convolution4"
  bottom: "Convolution4"
  bottom: "Convolution4"
  bottom: "Convolution4"
  bottom: "Convolution4"
  bottom: "Convolution4"
  bottom: "Convolution4"
  bottom: "Convolution4"
  bottom: "Convolution4"
  bottom: "Convolution4"
  bottom: "Convolution4"
  bottom: "Convolution4"
  bottom: "Convolution4"
  bottom: "Convolution4"
  bottom: "Convolution4"
  bottom: "Convolution4"
  bottom: "Convolution4"
  bottom: "Convolution4"
  bottom: "Convolution4"
  top: "Concat3"
  concat_param {
    axis: 2
  }
}
layer {
  name: "Convolution5"
  type: "Convolution"
  bottom: "HDF5Data1"
  top: "Convolution5"
  param {
    lr_mult: 1
    decay_mult: 1
  }
  param {
    lr_mult: 2
    decay_mult: 0
  }
  convolution_param {
    num_output: 32
    stride: 1
    weight_filler {
      type: "xavier"
    }
    bias_filler {
      type: "constant"
      value: 0
    }
    kernel_h: 1
    kernel_w: 110
  }
}
layer {
  name: "Concat4"
  type: "Concat"
  bottom: "Convolution5"
  bottom: "Convolution5"
  bottom: "Convolution5"
  bottom: "Convolution5"
  bottom: "Convolution5"
  bottom: "Convolution5"
  bottom: "Convolution5"
  bottom: "Convolution5"
  bottom: "Convolution5"
  bottom: "Convolution5"
  bottom: "Convolution5"
  bottom: "Convolution5"
  bottom: "Convolution5"
  bottom: "Convolution5"
  bottom: "Convolution5"
  bottom: "Convolution5"
  bottom: "Convolution5"
  bottom: "Convolution5"
  bottom: "Convolution5"
  bottom: "Convolution5"
  bottom: "Convolution5"
  bottom: "Convolution5"
  bottom: "Convolution5"
  bottom: "Convolution5"
  bottom: "Convolution5"
  bottom: "Convolution5"
  bottom: "Convolution5"
  bottom: "Convolution5"
  bottom: "Convolution5"
  bottom: "Convolution5"
  bottom: "Convolution5"
  bottom: "Convolution5"
  bottom: "Convolution5"
  bottom: "Convolution5"
  bottom: "Convolution5"
  bottom: "Convolution5"
  bottom: "Convolution5"
  bottom: "Convolution5"
  bottom: "Convolution5"
  bottom: "Convolution5"
  bottom: "Convolution5"
  bottom: "Convolution5"
  bottom: "Convolution5"
  bottom: "Convolution5"
  bottom: "Convolution5"
  bottom: "Convolution5"
  bottom: "Convolution5"
  bottom: "Convolution5"
  bottom: "Convolution5"
  bottom: "Convolution5"
  bottom: "Convolution5"
  bottom: "Convolution5"
  bottom: "Convolution5"
  bottom: "Convolution5"
  bottom: "Convolution5"
  bottom: "Convolution5"
  bottom: "Convolution5"
  bottom: "Convolution5"
  bottom: "Convolution5"
  bottom: "Convolution5"
  bottom: "Convolution5"
  bottom: "Convolution5"
  bottom: "Convolution5"
  bottom: "Convolution5"
  bottom: "Convolution5"
  bottom: "Convolution5"
  bottom: "Convolution5"
  bottom: "Convolution5"
  bottom: "Convolution5"
  bottom: "Convolution5"
  bottom: "Convolution5"
  bottom: "Convolution5"
  bottom: "Convolution5"
  bottom: "Convolution5"
  bottom: "Convolution5"
  bottom: "Convolution5"
  bottom: "Convolution5"
  bottom: "Convolution5"
  bottom: "Convolution5"
  bottom: "Convolution5"
  bottom: "Convolution5"
  bottom: "Convolution5"
  bottom: "Convolution5"
  bottom: "Convolution5"
  bottom: "Convolution5"
  bottom: "Convolution5"
  bottom: "Convolution5"
  bottom: "Convolution5"
  bottom: "Convolution5"
  bottom: "Convolution5"
  bottom: "Convolution5"
  bottom: "Convolution5"
  bottom: "Convolution5"
  bottom: "Convolution5"
  bottom: "Convolution5"
  bottom: "Convolution5"
  bottom: "Convolution5"
  bottom: "Convolution5"
  bottom: "Convolution5"
  bottom: "Convolution5"
  bottom: "Convolution5"
  bottom: "Convolution5"
  bottom: "Convolution5"
  bottom: "Convolution5"
  bottom: "Convolution5"
  bottom: "Convolution5"
  bottom: "Convolution5"
  bottom: "Convolution5"
  bottom: "Convolution5"
  bottom: "Convolution5"
  top: "Concat4"
  concat_param {
    axis: 3
  }
}
layer {
  name: "Eltwise2"
  type: "Eltwise"
  bottom: "Concat3"
  bottom: "Concat4"
  top: "Eltwise2"
  eltwise_param {
    operation: SUM
  }
}
layer {
  name: "Convolution6"
  type: "Convolution"
  bottom: "Eltwise2"
  top: "Convolution6"
  param {
    lr_mult: 1
    decay_mult: 1
  }
  param {
    lr_mult: 2
    decay_mult: 0
  }
  convolution_param {
    num_output: 64
    stride: 1
    weight_filler {
      type: "xavier"
    }
    bias_filler {
      type: "constant"
      value: 0
    }
    kernel_h: 1
    kernel_w: 110
  }
}
layer {
  name: "Dropout2"
  type: "Dropout"
  bottom: "Convolution6"
  top: "Convolution6"
  dropout_param {
    dropout_ratio: 0.5
  }
}
layer {
  name: "ReLU3"
  type: "ReLU"
  bottom: "Convolution6"
  top: "Convolution6"
  relu_param {
    negative_slope: 0.33
  }
}
layer {
  name: "InnerProduct3"
  type: "InnerProduct"
  bottom: "Convolution6"
  top: "InnerProduct3"
  param {
    lr_mult: 1
    decay_mult: 1
  }
  param {
    lr_mult: 2
    decay_mult: 0
  }
  inner_product_param {
    num_output: 30
    weight_filler {
      type: "xavier"
    }
    bias_filler {
      type: "constant"
      value: 0
    }
  }
}
layer {
  name: "ReLU4"
  type: "ReLU"
  bottom: "InnerProduct3"
  top: "InnerProduct3"
  relu_param {
    negative_slope: 0.33
  }
}
layer {
  name: "InnerProduct4"
  type: "InnerProduct"
  bottom: "InnerProduct3"
  top: "InnerProduct4"
  param {
    lr_mult: 1
    decay_mult: 1
  }
  param {
    lr_mult: 2
    decay_mult: 0
  }
  inner_product_param {
    num_output: 1
    weight_filler {
      type: "xavier"
    }
    bias_filler {
      type: "constant"
      value: 0
    }
  }
}
layer {
  name: "Concat5"
  type: "Concat"
  bottom: "InnerProduct2"
  bottom: "InnerProduct4"
  top: "Concat5"
}
layer {
  name: "out"
  type: "InnerProduct"
  bottom: "Concat5"
  top: "out"
  param {
    lr_mult: 1
    decay_mult: 1
  }
  param {
    lr_mult: 2
    decay_mult: 0
  }
  inner_product_param {
    num_output: 1
    weight_filler {
      type: "xavier"
    }
    bias_filler {
      type: "constant"
      value: 0
    }
  }
}
layer {
  name: "loss"
  type: "EuclideanLoss"
  bottom: "out"
  bottom: "label"
  top: "loss"
}
